converted_model.tflite (tflite, 760664 bytes, 9 tensors)

sequential/dense_1/MatMul f4 [7, 32]
0	0xbe884895	-0.26617876
1	0xbdc4cbd9	-0.09609193
2	0x3e443764	0.19161755
3	0xbee06dbb	-0.43833718
4	0xbe02f14e	-0.12787363
5	0xbecbeafc	-0.39827716
6	0x3e0792e1	0.13239624
7	0x3bcb1ccc	0.006198501
8	0xbdf16f70	-0.11788833
9	0xbeb5e018	-0.35522532
10	0x3cb8cdf6	0.022559147
11	0x3efdfcf4	0.4960705
12	0x3e6518b0	0.22372699
13	0x3f03e869	0.51526505
14	0xbf020399	-0.5078674
15	0xbeea7e75	-0.45799604
16	0xbd98cf8a	-0.0746146
17	0xbeaa2ef7	-0.33238956
18	0xbdc88f2b	-0.09792932
19	0xbdd2a84d	-0.10286007
20	0x3ebdd3e0	0.3707571
21	0x3e358e01	0.17729951
22	0xbed65565	-0.41862026
23	0x3e4333d7	0.19062744
24	0x3e9a7aec	0.30171907
25	0xbeaf5d59	-0.34250906
26	0x3eb2be66	0.34910887
27	0x3d4e1aec	0.050318643
28	0xbea00e85	-0.31261078
29	0xbec65882	-0.387394
30	0xbf21e390	-0.6323786
31	0x3ecc5984	0.39912045
32	0xbeb4ef52	-0.35338837
33	0xbde20885	-0.11036781
34	0xbe88ac30	-0.2669387
35	0x3eee8af5	0.4659039
36	0xbe886dae	-0.2664618
37	0xbe748c07	-0.23881541
38	0xbee6085a	-0.44928247
39	0xbc8f9f24	-0.017531939
40	0xbbbe39b4	-0.0058052186
41	0xbdc911b9	-0.098178335
42	0xbee16d96	-0.4402892
43	0x3ea1353e	0.31485933
44	0xbe35015c	-0.176763
45	0xbe9d5300	-0.30727386
46	0x3eda553a	0.42643148
47	0x3e1db7ec	0.15402192
48	0x3e945dae	0.28977722
49	0x3ef9dd91	0.48801854
50	0xbe2e8a65	-0.17044981
51	0xbcc4843d	-0.023988837
52	0x3e769052	0.24078491
53	0xbe5cbb4b	-0.21555822
54	0xbec207a1	-0.37896445
55	0xbeeb9527	-0.46012232
56	0xbe02fb84	-0.12791258
57	0xbdcfc6c5	-0.10145334
58	0x3eb907b4	0.3613869
59	0x3f0154f5	0.5052026
60	0x3ea07820	0.31341648
61	0xbdedeea2	-0.11617781
62	0xbef58664	-0.47954094
63	0x3e6fce93	0.23418646
64	0xbc35353c	-0.011060055
65	0x3ebcef59	0.36901358
66	0xbd03cbb2	-0.03217668
67	0x3e270582	0.16310695
68	0xbee4078d	-0.4453701
69	0xbe8a3824	-0.26995957
70	0x3ea64a94	0.32478774
71	0xbec1357a	-0.37736112
72	0xbe8217d9	-0.2540882
73	0xbd288124	-0.041138783
74	0xbe4bdc67	-0.19908296
75	0xbd7e5050	-0.06208831
76	0xbf12f842	-0.5741006
77	0xbe60069e	-0.21877524
78	0xbf0109a7	-0.50405353
79	0xbeb34430	-0.3501296
80	0x3df4a772	0.11946
81	0xbeeb4f46	-0.45958918
82	0xbd8a06c2	-0.0673957
83	0x3ed8696d	0.42267933
84	0xbdda8a62	-0.10670926
85	0xbec4325d	-0.38319674
86	0x3ea6855f	0.3252363
87	0x3ed707af	0.4199805
88	0x3e171915	0.14755662
89	0xbe8e0efc	-0.27745807
90	0x3e9e931c	0.3097161
91	0x3e79d1bd	0.24396415
92	0xbdbc9f3d	-0.0921006
93	0xbea58580	-0.32328415
94	0x3e71b655	0.2360471
95	0xbc46ca40	-0.012133181
96	0xbf052e67	-0.5202393
97	0x3e427aad	0.1899211
98	0xbe3fdfbf	-0.18737696
99	0x3ea854bd	0.3287715
100	0x3f2935d1	0.6609774
101	0x3dfb6196	0.122744724
102	0xbeada43a	-0.33914357
103	0x3e297fa8	0.16552603
104	0x3ec4cc6b	0.3843721
105	0x3df2f22d	0.118625976
106	0x3e45af01	0.1930504
107	0x3e5a4218	0.21314275
108	0xbd88ab3d	-0.06673286
109	0xbf092d50	-0.53584766
110	0xbee8b3ba	-0.4544962
111	0x3e77a4f0	0.24184012
112	0xbe8e21be	-0.27760118
113	0x3ed1fff1	0.4101558
114	0x3eeabaf3	0.45845756
115	0x3edf8861	0.43658736
116	0x3d1d13c0	0.038348913
117	0xbec33759	-0.38128164
118	0xbe1475d9	-0.1449808
119	0xbed905e4	-0.42387307
120	0xbeb8f356	-0.3612315
121	0x3e2cd38c	0.16877574
122	0xbf02d1d4	-0.5110142
123	0xbe10ceae	-0.14141342
124	0xbe9e4e6a	-0.309192
125	0x3e1ebe57	0.15502296
126	0x3ec27281	0.37977985
127	0x3ebf5db9	0.37376192
128	0x3e1bf0e3	0.1522861
129	0x3dfc8b28	0.123312294
130	0xbef1987a	-0.47186643
131	0x3e340997	0.17581783
132	0xbee385c2	-0.44437987
133	0xbec5dfd0	-0.38647318
134	0xbec48b4d	-0.38387528
135	0xbd3dabfb	-0.04630659
136	0x3ef851b4	0.48499835
137	0x3e449956	0.19199118
138	0x3e952126	0.29126853
139	0xbcad99e6	-0.021191549
140	0x3edfa434	0.43679965
141	0x3ee737e2	0.45159823
142	0xbecbf3fc	-0.39834583
143	0x3e69538d	0.22785778
144	0xbe8ba16e	-0.272716
145	0xbd90b1a6	-0.07065134
146	0x3e52e6b8	0.20595825
147	0x3ea9611d	0.33081904
148	0xbedb8403	-0.42874154
149	0x3d7ce5a3	0.061742436
150	0xbe2ccdc5	-0.1687537
151	0xbec32267	-0.38112184
152	0x3e502b52	0.20329025
153	0x3e0524f4	0.13002378
154	0x3e822001	0.25415042
155	0xbe096a9b	-0.13419573
156	0x3ef77dd5	0.4833819
157	0xbed533b1	-0.41641
158	0xbf0fbb11	-0.56144816
159	0xbe2c25cc	-0.16811293
160	0x3e6dd397	0.23225246
161	0xbda023d2	-0.07819332
162	0xbe5df018	-0.2167362
163	0xbeea6f30	-0.45787954
164	0x3e243721	0.16036655
165	0x3e97f9a4	0.29682648
166	0xbe932149	-0.28736332
167	0xbe34ccfc	-0.1765632
168	0xbdd8f663	-0.105938695
169	0x3e87adc9	0.26499775
170	0x3e57ea9c	0.2108559
171	0xbeea90ec	-0.45813692
172	0x3e6e7ded	0.23290224
173	0x3d0f70fd	0.035019863
174	0xbe7a08e9	-0.24417461
175	0xbed590a5	-0.41711918
176	0x3efa04ba	0.4883173
177	0x3ee1cbe3	0.44100866
178	0x3dac08de	0.08400129
179	0xbe76add3	-0.24089746
180	0xbe6d70bd	-0.23187537
181	0x3ebf3edf	0.37352654
182	0x3d01f89d	0.031731237
183	0x3ecd7ec6	0.40135783
184	0x3ed476fc	0.41497028
185	0x3e7f6d4d	0.24944039
186	0x3e7dff02	0.24804309
187	0x3d7a8a5a	0.0611671
188	0xbe6de793	-0.2323287
189	0x3ea0c4a2	0.3140002
190	0x3c93afa1	0.018028082
191	0xbd85ac8d	-0.06527052
192	0xbcbc2260	-0.02296561
193	0xbecd0600	-0.4004364
194	0xbea8817a	-0.32911283
195	0xbf008fed	-0.50219613
196	0xbc2f2a31	-0.010691212
197	0xbe8d53d4	-0.27603018
198	0xbdbdc2de	-0.092656836
199	0xbe8f9d01	-0.28049472
200	0xbe23a5c1	-0.15981199
201	0xbda3e770	-0.080031276
202	0xbe246078	-0.16052425
203	0x3e30b4dd	0.17256494
204	0xbc8c5a40	-0.017132878
205	0xbde438b5	-0.111436285
206	0xbda7b019	-0.08187885
207	0xbece145f	-0.40249917
208	0xbe7755bf	-0.24153803
209	0xbe152ea3	-0.14568572
210	0xbec2b141	-0.3802586
211	0xbe2a1f8a	-0.16613594
212	0xbe160840	-0.14651585
213	0xbe88727b	-0.26649842
214	0xbf068599	-0.52547604
215	0xbe2054bf	-0.15657328
216	0xbe46f8d0	-0.19430852
217	0xbe82d7de	-0.2555532
218	0xbe1bba88	-0.15207875
219	0x3db4d57e	0.08829783
220	0xbde9f297	-0.114232235
221	0xbe673dbc	-0.22582144
222	0x3e07c08f	0.13257049
223	0xbeb1024f	-0.34572074

sequential/dense_1/BiasAdd/ReadVariableOp f4 [7]
0	0xbd1ae8df	-0.03781974
1	0x3d489178	0.048966855
2	0x3d6b1d57	0.057401028
3	0x3d01fa73	0.031732988
4	0xbc49bc9e	-0.012313036
5	0xbbaf9726	-0.0053585945
6	0xbd978557	-0.073984794

sequential/dense/BiasAdd/ReadVariableOp f4 [32]
0	0x3d1330bb	0.035935145
1	0x3de30fb8	0.110869825
2	0x3d51d788	0.051230937
3	0x3e28862d	0.16457434
4	0x3d8ed239	0.069736905
5	0x3daf57c8	0.08561665
6	0x3d6ac126	0.057313107
7	0xbd3c93d7	-0.04603943
8	0x3da88e08	0.08230215
9	0x3d685f80	0.0567317
10	0x3d9e738f	0.07736885
11	0x3cf1ee75	0.02953265
12	0x3d7bab2d	0.061442543
13	0x3d84f00c	0.06491098
14	0x3da723ea	0.08161147
15	0x3db6ece5	0.08931903
16	0x3d98bb5b	0.0745761
17	0x3db25ec2	0.0870948
18	0x3dbd7a2b	0.09251817
19	0x3e019d2f	0.12657617
20	0x3d44e887	0.048073318
21	0x3d29a9e8	0.0414218
22	0x3dd95351	0.106115945
23	0x3da31e69	0.07964785
24	0x3d40d7bc	0.04708074
25	0x3d7de05d	0.061981548
26	0x3dce69ab	0.10078748
27	0x3d984101	0.074342735
28	0x3d7b27fd	0.061317433
29	0x3d42745f	0.04747426
30	0x3d98e2bd	0.07465122
31	0x3d95b5fe	0.07310103

sequential/lstm/Read_2/ReadVariableOp f4 [512]
0	0x3c0838c7	0.008314318
1	0x3c8028b2	0.015644405
2	0x3cec027d	0.02880978
3	0x3ce6833f	0.028138755
4	0x3d0c7516	0.03429135
5	0x3c029514	0.007970113
6	0xbc0b2294	-0.008492131
7	0xbce380af	-0.027771322
8	0x3bc92a5c	0.006139083
9	0x3d0c94ee	0.034321718
10	0xbc8ec4d5	-0.017427841
11	0xbcca2287	-0.024674667
12	0xbbeaed06	-0.0071693687
13	0x3d5b8013	0.053588938
14	0x3d5b62b8	0.053560942
15	0x3d1fed3d	0.039044607
16	0x3da30cbe	0.07961415
17	0xbc7435d1	-0.014905409
18	0x3d1adc02	0.037807472
19	0x3aade253	0.0013266302
20	0x3d16b815	0.036796648
21	0xbd06aa8e	-0.032877497
22	0x3b5d485d	0.0033765056
23	0xbc0448e7	-0.008074022
24	0xbc67dde3	-0.014152023
25	0xbca59834	-0.020214178
26	0xbc2021b2	-0.009773659
27	0x3d050760	0.032477736
28	0xbb3ae24b	-0.0028516229
29	0xbd1151d6	-0.035478435
30	0x3bf0bba2	0.0073465863
31	0x3bf7cb3e	0.00756207
32	0x3c2fd05e	0.010730831
33	0xbc24985a	-0.010046089
34	0x3c83d344	0.01609195
35	0x3c46d010	0.012134567
36	0x3ca2f7eb	0.019893607
37	0xbba2347b	-0.004950104
38	0xbd2f2c42	-0.042766817
39	0x3cbba442	0.022905473
40	0x3d501514	0.05080135
41	0xbc6bcb68	-0.014391758
42	0x3c2d3156	0.010570845
43	0xbbde74db	-0.0067888326
44	0x3ca2884f	0.019840388
45	0x3c32f5a7	0.010922826
46	0xbc92dac0	-0.017926574
47	0x3d3befb7	0.045882907
48	0x3b2198bf	0.0024657694
49	0xbaf11a03	-0.0018394593
50	0xbc0992e8	-0.008396842
51	0x3c8440f0	0.016144246
52	0x3d2140f8	0.0393686
53	0xbc003a6d	-0.00782643
54	0xbb5442c6	-0.0032388433
55	0x3bd3c53d	0.0064627216
56	0xbd27b696	-0.040945612
57	0x3c1779e3	0.009245369
58	0x3de706b0	0.112805724
59	0x3d59d04d	0.053177167
60	0x3c4b2f69	0.01240144
61	0x3cb9a843	0.022663241
62	0x3ca57f02	0.020202164
63	0x3dc97d03	0.09838297
64	0x3c5e076b	0.013551573
65	0x3ab5e6f7	0.0013878037
66	0xbc0c3623	-0.008557829
67	0x3ab0c065	0.0013485072
68	0xbcda4716	-0.026645225
69	0x3c76e6e2	0.015069695
70	0x3c45c079	0.012069815
71	0x3b96fd09	0.004607801
72	0x3d8691d4	0.06570783
73	0x3c66718a	0.014065156
74	0xbbb22538	-0.0054365657
75	0x3d01a901	0.031655315
76	0x3be9ddc5	0.0071370327
77	0x3d119252	0.035539933
78	0xbb5974e4	-0.0033181245
79	0x3c1af09f	0.009456783
80	0x3cd070b4	0.025444366
81	0x3c912f0d	0.01772263
82	0xbc38d43b	-0.011281068
83	0xbb8f59db	-0.0043747253
84	0x3c896a5b	0.016774347
85	0xbaa701db	-0.0012741642
86	0x3cdad6fb	0.026713839
87	0x3d0e72f9	0.034777615
88	0xbb82ab1a	-0.003987682
89	0x3d02a111	0.031891886
90	0x3c84070e	0.016116645
91	0xb929be09	-0.0001618789
92	0xbaf8aa8c	-0.0018971725
93	0x39be9c10	0.000363559
94	0xbc0e22c6	-0.008675283
95	0x3cbf08f6	0.023319703
96	0xbd13965f	-0.036032077
97	0xbd095e3a	-0.033537127
98	0xbc4cc2aa	-0.012497583
99	0xbd15f7e5	-0.036613364
100	0x3c6c7d24	0.014434133
101	0xbd3f8467	-0.046757128
102	0x3d1920a1	0.037384633
103	0xbd423777	-0.047416177
104	0xbc6209bb	-0.013796265
105	0x3d4e9465	0.05043449
106	0xbc1f7ed6	-0.00973483
107	0x39844064	0.00025224977
108	0x3900366e	0.00012227308
109	0x3d003a9c	0.031305894
110	0xbb93bb84	-0.0045084376
111	0x3c23b204	0.009991173
112	0x3c47c9e2	0.012194129
113	0xbd81a0c9	-0.063294955
114	0x3c33c249	0.010971614
115	0x3c2d5d2d	0.010581297
116	0x3cbc3b82	0.022977594
117	0xbb3d1ba1	-0.002885558
118	0x3b4069cb	0.0029359933
119	0x3beb7059	0.0071850237
120	0x3d833334	0.064062506
121	0xbc7534d9	-0.014966213
122	0x3d2938e8	0.041314036
123	0xbd058aae	-0.03260296
124	0x3d8a3b35	0.06749574
125	0xbcba3f5e	-0.022735294
126	0x3cb6b524	0.022303171
127	0x3c817cbd	0.01580655
128	0x3f82100b	1.0161146
129	0x3f82abbc	1.0208659
130	0x3f8130b1	1.0092984
131	0x3f81b629	1.0133716
132	0x3f820c21	1.0159951
133	0x3f7efe79	0.99607044
134	0x3f7fb073	0.99878615
135	0x3f801d07	1.0008858
136	0x3f8189a1	1.0120126
137	0x3f832ae4	1.0247464
138	0x3f7c21ef	0.9848928
139	0x3f7b612d	0.98195153
140	0x3f806df2	1.0033553
141	0x3f848522	1.0353129
142	0x3f843a3f	1.0330275
143	0x3f83aaa3	1.0286449
144	0x3f839f62	1.0283015
145	0x3f7cd67c	0.9876478
146	0x3f82bc2e	1.0213678
147	0x3f7cf94c	0.98817897
148	0x3f810279	1.007888
149	0x3f742230	0.95364666
150	0x3f7e28c9	0.99280983
151	0x3f7dc2f0	0.99125576
152	0x3f8043f0	1.0020733
153	0x3f7c302e	0.98511016
154	0x3f806ee9	1.0033847
155	0x3f8456fa	1.0339043
156	0x3f7da90b	0.99086064
157	0x3f7e7205	0.9939273
158	0x3f814401	1.0098878
159	0x3f825708	1.018281
160	0x3f7d23ad	0.9888256
161	0x3f801192	1.0005362
162	0x3f81023a	1.0078804
163	0x3f801b68	1.0008364
164	0x3f8120bd	1.0088116
165	0x3f7d971e	0.9905871
166	0x3f7b17e8	0.98083353
167	0x3f8181ad	1.0117699
168	0x3f826fe9	1.0190402
169	0x3f802039	1.0009834
170	0x3f8241f9	1.0176383
171	0x3f7d5022	0.989504
172	0x3f81db44	1.014504
173	0x3f80a2b6	1.0049655
174	0x3f7c545c	0.9856622
175	0x3f840a35	1.0315615
176	0x3f804557	1.0021161
177	0x3f80518f	1.002489
178	0x3f7c9a8f	0.9867334
179	0x3f803849	1.0017177
180	0x3f84e365	1.0381895
181	0x3f7e7ef8	0.9941249
182	0x3f7d9e04	0.9906924
183	0x3f82d981	1.0222627
184	0x3f76988d	0.96326524
185	0x3f81d8db	1.0144304
186	0x3f895032	1.0727599
187	0x3f82ea7a	1.0227807
188	0x3f8180f4	1.0117478
189	0x3f829a43	1.0203327
190	0x3f8201fb	1.0156854
191	0x3f852694	1.0402398
192	0x3f7f22bd	0.9966238
193	0x3f7d8687	0.990334
194	0x3f7f2d36	0.9967836
195	0x3f7e8db1	0.99434954
196	0x3f7fe60c	0.999604
197	0x3f838662	1.0275385
198	0x3f837bc9	1.0272151
199	0x3f801172	1.0005324
200	0x3f842d4c	1.0326324
201	0x3f80cda3	1.0062755
202	0x3f80205a	1.0009873
203	0x3f81def5	1.0146166
204	0x3f819469	1.0123416
205	0x3f8071c5	1.003472
206	0x3f80334b	1.0015653
207	0x3f81cec5	1.0141226
208	0x3f8088f7	1.0041798
209	0x3f81ba55	1.0134989
210	0x3f7c15d5	0.98470813
211	0x3f7d7a3d	0.99014646
212	0x3f834f9f	1.0258673
213	0x3f8034df	1.0016135
214	0x3f8282e1	1.0196191
215	0x3f831d4b	1.0243315
216	0x3f7f7db7	0.998012
217	0x3f86caf2	1.0530684
218	0x3f7fe5e2	0.9996015
219	0x3f7f5b8a	0.9974905
220	0x3f809bfa	1.00476
221	0x3f81ca5a	1.0139878
222	0x3f7e16d6	0.99253595
223	0x3f82bc70	1.0213757
224	0x3f7cf4f4	0.9881127
225	0x3f78a2a3	0.97123164
226	0x3f7cf761	0.9881497
227	0x3f7e51de	0.9934367
228	0x3f823ca6	1.0174758
229	0x3f789271	0.9709845
230	0x3f842aae	1.0325525
231	0x3f79c6be	0.9756888
232	0x3f8157b4	1.010489
233	0x3f845368	1.0337954
234	0x3f77c3bf	0.9678306
235	0x3f7d95ba	0.9905659
236	0x3f81694b	1.0110258
237	0x3f8266bc	1.0187602
238	0x3f7ef6d6	0.9959539
239	0x3f82d237	1.0220402
240	0x3f839ff5	1.028319
241	0x3f793c45	0.9735759
242	0x3f821a87	1.0164346
243	0x3f7f5b04	0.99748254
244	0x3f7ec61b	0.99521035
245	0x3f80a03d	1.0048901
246	0x3f812c71	1.0091687
247	0x3f81f766	1.0153625
248	0x3f843db3	1.0331329
249	0x3f7d6299	0.98978573
250	0x3f890b97	1.0706662
251	0x3f7885f2	0.97079384
252	0x3f875c53	1.057505
253	0x3f7adbf5	0.9799188
254	0x3f843b41	1.0330583
255	0x3f8059c9	1.00274

sequential/embedding/embedding_lookup i1 [6240, 100] scale=0.0035941896 zero_point=0
0	0x0f	0.053912845
1	0xfd	-0.010782569
2	0xfd	-0.010782569
3	0xf4	-0.043130275
4	0xf6	-0.035941895
5	0xfa	-0.021565137
6	0xfe	-0.0071883793
7	0xfa	-0.021565137
8	0x0b	0.039536085
9	0xf4	-0.043130275
10	0xfb	-0.017970948
11	0x09	0.032347705
12	0x0a	0.035941895
13	0xf8	-0.028753517
14	0xf9	-0.025159327
15	0x03	0.010782569
16	0x09	0.032347705
17	0x02	0.0071883793
18	0xf9	-0.025159327
19	0x00	0.0
20	0xff	-0.0035941896
21	0xf9	-0.025159327
22	0x0a	0.035941895
23	0x0b	0.039536085
24	0xf8	-0.028753517
25	0x01	0.0035941896
26	0x0e	0.050318655
27	0xf9	-0.025159327
28	0x09	0.032347705
29	0xf3	-0.046724465
30	0x02	0.0071883793
31	0xf7	-0.032347705
32	0xf4	-0.043130275
33	0xf9	-0.025159327
34	0xfa	-0.021565137
35	0xfc	-0.014376759
36	0xf9	-0.025159327
37	0xf5	-0.039536085
38	0xf4	-0.043130275
39	0xfd	-0.010782569
40	0x01	0.0035941896
41	0xfd	-0.010782569
42	0xfb	-0.017970948
43	0x02	0.0071883793
44	0xfc	-0.014376759
45	0xf4	-0.043130275
46	0x0b	0.039536085
47	0x02	0.0071883793
48	0x01	0.0035941896
49	0xf7	-0.032347705
50	0xf6	-0.035941895
51	0xfc	-0.014376759
52	0x00	0.0
53	0xfc	-0.014376759
54	0xff	-0.0035941896
55	0x02	0.0071883793
56	0xf7	-0.032347705
57	0x0f	0.053912845
58	0xfb	-0.017970948
59	0x00	0.0
60	0x03	0.010782569
61	0x0f	0.053912845
62	0x03	0.010782569
63	0xfd	-0.010782569
64	0xf6	-0.035941895
65	0xf6	-0.035941895
66	0x08	0.028753517
67	0x00	0.0
68	0xfc	-0.014376759
69	0x09	0.032347705
70	0xf9	-0.025159327
71	0x00	0.0
72	0x01	0.0035941896
73	0xf5	-0.039536085
74	0xfb	-0.017970948
75	0xf5	-0.039536085
76	0x01	0.0035941896
77	0xfa	-0.021565137
78	0xf6	-0.035941895
79	0x0d	0.046724465
80	0xfb	-0.017970948
81	0xf9	-0.025159327
82	0xf3	-0.046724465
83	0xf3	-0.046724465
84	0xf7	-0.032347705
85	0x03	0.010782569
86	0x0a	0.035941895
87	0xfc	-0.014376759
88	0x06	0.021565137
89	0x03	0.010782569
90	0x04	0.014376759
91	0xfc	-0.014376759
92	0xf4	-0.043130275
93	0xf7	-0.032347705
94	0xfb	-0.017970948
95	0x00	0.0
96	0xf5	-0.039536085
97	0x05	0.017970948
98	0x04	0.014376759
99	0x0e	0.050318655
100	0xd6	-0.15095596
101	0x0e	0.050318655
102	0xdc	-0.12939082
103	0x2e	0.16533272
104	0xde	-0.12220245
105	0xf9	-0.025159327
106	0x1e	0.10782569
107	0xfa	-0.021565137
108	0x24	0.12939082
109	0xec	-0.07188379
110	0x19	0.08985474
111	0x2a	0.15095596
112	0x0d	0.046724465
113	0xe5	-0.09704312
114	0xe0	-0.11501407
115	0xec	-0.07188379
116	0x27	0.14017339
117	0xe8	-0.08626055
118	0x1f	0.11141988
119	0xdf	-0.11860826
120	0x29	0.14736177
121	0xf4	-0.043130275
122	0x1b	0.09704312
123	0x1f	0.11141988
124	0xd7	-0.14736177
125	0xd8	-0.14376758
126	0xdc	-0.12939082
127	0xe4	-0.10063731
128	0x12	0.06469541
129	0x03	0.010782569
130	0x2c	0.15814434
131	0xdd	-0.12579663
132	0xdd	-0.12579663
133	0xf0	-0.057507034
134	0xf0	-0.057507034
135	0x11	0.061101224
136	0xf3	-0.046724465
137	0x0e	0.050318655
138	0x27	0.14017339
139	0xd7	-0.14736177
140	0xda	-0.1365792
141	0xec	-0.07188379
142	0x01	0.0035941896
143	0x12	0.06469541
144	0x24	0.12939082
145	0xf3	-0.046724465
146	0xec	-0.07188379
147	0x07	0.025159327
148	0xf6	-0.035941895
149	0xdc	-0.12939082
150	0x1c	0.10063731
151	0xd6	-0.15095596
152	0xd7	-0.14736177
153	0x06	0.021565137
154	0x2a	0.15095596
155	0x14	0.07188379
156	0x17	0.08266636
157	0x13	0.0682896
158	0x29	0.14736177
159	0x29	0.14736177
160	0xd3	-0.16173853
161	0xd4	-0.15814434
162	0x13	0.0682896
163	0x05	0.017970948
164	0x1f	0.11141988
165	0x24	0.12939082
166	0xfa	-0.021565137
167	0x26	0.1365792
168	0x1a	0.09344893
169	0x0c	0.043130275
170	0x19	0.08985474
171	0xf4	-0.043130275
172	0x21	0.11860826
173	0x03	0.010782569
174	0xf9	-0.025159327
175	0xe3	-0.1042315
176	0xde	-0.12220245
177	0x2c	0.15814434
178	0xe2	-0.10782569
179	0x27	0.14017339
180	0x26	0.1365792
181	0x2a	0.15095596
182	0x1f	0.11141988
183	0x08	0.028753517
184	0xfd	-0.010782569
185	0x1e	0.10782569
186	0x12	0.06469541
187	0xe2	-0.10782569
188	0xe8	-0.08626055
189	0x16	0.07907217
190	0xda	-0.1365792
191	0xe7	-0.08985474
192	0x25	0.13298501
193	0x18	0.08626055
194	0xee	-0.06469541
195	0xf6	-0.035941895
196	0x20	0.11501407
197	0xf2	-0.050318655
198	0xe7	-0.08985474
199	0xeb	-0.07547798
200	0x10	0.057507034
201	0xfd	-0.010782569
202	0x0e	0.050318655
203	0xf4	-0.043130275
204	0xfa	-0.021565137
205	0x13	0.0682896
206	0x05	0.017970948
207	0xf9	-0.025159327
208	0x08	0.028753517
209	0xf9	-0.025159327
210	0x0f	0.053912845
211	0x01	0.0035941896
212	0xf1	-0.053912845
213	0xfc	-0.014376759
214	0xfb	-0.017970948
215	0x04	0.014376759
216	0x00	0.0
217	0x08	0.028753517
218	0x0c	0.043130275
219	0xf5	-0.039536085
220	0x03	0.010782569
221	0x01	0.0035941896
222	0xf4	-0.043130275
223	0xff	-0.0035941896
224	0x02	0.0071883793
225	0x06	0.021565137
226	0x0e	0.050318655
227	0xfa	-0.021565137
228	0xfb	-0.017970948
229	0xfa	-0.021565137
230	0xf5	-0.039536085
231	0x15	0.07547798
232	0x00	0.0
233	0x0d	0.046724465
234	0x06	0.021565137
235	0x0a	0.035941895
236	0x0c	0.043130275
237	0xf6	-0.035941895
238	0xf9	-0.025159327
239	0xfa	-0.021565137
240	0xf4	-0.043130275
241	0xfa	-0.021565137
242	0xf9	-0.025159327
243	0xf6	-0.035941895
244	0x00	0.0
245	0xff	-0.0035941896
246	0xfe	-0.0071883793
247	0xe9	-0.08266636
248	0x06	0.021565137
249	0xf6	-0.035941895
250	0x0a	0.035941895
251	0x01	0.0035941896
252	0x05	0.017970948
253	0x07	0.025159327
254	0x06	0.021565137
255	0x00	0.0

sequential/dense/MatMul i1 [32, 128] scale=0.0035645403 zero_point=0
0	0x15	0.07485534
1	0x1f	0.11050075
2	0xe9	-0.08198443
3	0x08	0.028516322
4	0xec	-0.071290806
5	0xd4	-0.15683977
6	0x06	0.021387242
7	0xfc	-0.014258161
8	0x0c	0.042774484
9	0x0f	0.053468104
10	0x07	0.024951782
11	0x32	0.178227
12	0xd9	-0.13901708
13	0x43	0.2388242
14	0xbe	-0.23525965
15	0xfd	-0.010693621
16	0xc8	-0.19961426
17	0xf9	-0.024951782
18	0xde	-0.12119437
19	0x11	0.060597185
20	0x38	0.19961426
21	0x0b	0.039209943
22	0x06	0.021387242
23	0x31	0.17466247
24	0x0e	0.049903564
25	0x04	0.014258161
26	0xf8	-0.028516322
27	0xed	-0.06772627
28	0x2e	0.16396886
29	0xec	-0.071290806
30	0xff	-0.0035645403
31	0x05	0.017822701
32	0xfe	-0.0071290806
33	0xe3	-0.103371665
34	0xef	-0.060597185
35	0x0f	0.053468104
36	0x1d	0.103371665
37	0x05	0.017822701
38	0x0a	0.035645403
39	0xfd	-0.010693621
40	0xcb	-0.18892063
41	0x36	0.19248518
42	0xc4	-0.21387242
43	0x2b	0.15327524
44	0x1a	0.09267805
45	0x19	0.0891135
46	0x1f	0.11050075
47	0x34	0.1853561
48	0xe5	-0.09624259
49	0xe7	-0.0891135
50	0xc2	-0.2210015
51	0xf3	-0.046339024
52	0xdd	-0.124758914
53	0x1d	0.103371665
54	0x29	0.14614615
55	0x0d	0.046339024
56	0x08	0.028516322
57	0xc6	-0.20674333
58	0x0d	0.046339024
59	0xda	-0.13545254
60	0xd9	-0.13901708
61	0xd0	-0.17109793
62	0xfb	-0.017822701
63	0xd7	-0.14614615
64	0xc3	-0.21743695
65	0xfb	-0.017822701
66	0xf8	-0.028516322
67	0xc2	-0.2210015
68	0xeb	-0.07485534
69	0x08	0.028516322
70	0xc8	-0.19961426
71	0x28	0.14258161
72	0xd4	-0.15683977
73	0xc5	-0.21030788
74	0xcb	-0.18892063
75	0xec	-0.071290806
76	0x1c	0.09980713
77	0xf3	-0.046339024
78	0x34	0.1853561
79	0x25	0.13188799
80	0xff	-0.0035645403
81	0x20	0.11406529
82	0x02	0.0071290806
83	0xd7	-0.14614615
84	0xec	-0.071290806
85	0xe8	-0.08554897
86	0xec	-0.071290806
87	0xfd	-0.010693621
88	0xd5	-0.15327524
89	0xc2	-0.2210015
90	0x29	0.14614615
91	0xe0	-0.11406529
92	0x1f	0.11050075
93	0xd0	-0.17109793
94	0x07	0.024951782
95	0x29	0.14614615
96	0xe0	-0.11406529
97	0x33	0.18179156
98	0x20	0.11406529
99	0xef	-0.060597185
100	0xd0	-0.17109793
101	0xf7	-0.032080863
102	0x22	0.12119437
103	0x10	0.057032645
104	0x4d	0.2744696
105	0x0c	0.042774484
106	0xd1	-0.1675334
107	0xdb	-0.13188799
108	0xfc	-0.014258161
109	0xd9	-0.13901708
110	0x3a	0.20674333
111	0xe6	-0.09267805
112	0xd1	-0.1675334
113	0x20	0.11406529
114	0xc9	-0.19604972
115	0x10	0.057032645
116	0x0e	0.049903564
117	0xfe	-0.0071290806
118	0xe6	-0.09267805
119	0xcc	-0.1853561
120	0x1a	0.09267805
121	0xdd	-0.124758914
122	0xe3	-0.103371665
123	0xd9	-0.13901708
124	0x30	0.17109793
125	0x1b	0.09624259
126	0xc1	-0.22456604
127	0xc3	-0.21743695
128	0x02	0.0071290806
129	0x1d	0.103371665
130	0xc6	-0.20674333
131	0x64	0.356454
132	0xf9	-0.024951782
133	0x2a	0.14971069
134	0x1b	0.09624259
135	0x4d	0.2744696
136	0xd4	-0.15683977
137	0x27	0.13901708
138	0x13	0.06772627
139	0x4f	0.2815987
140	0x02	0.0071290806
141	0xd1	-0.1675334
142	0x1f	0.11050075
143	0x5d	0.33150226
144	0x42	0.23525965
145	0x03	0.010693621
146	0x4a	0.26377597
147	0xe7	-0.0891135
148	0xee	-0.064161725
149	0xdf	-0.117629826
150	0x27	0.13901708
151	0xcc	-0.1853561
152	0xca	-0.19248518
153	0x03	0.010693621
154	0xc8	-0.19961426
155	0x3f	0.22456604
156	0xc9	-0.19604972
157	0xfe	-0.0071290806
158	0xfe	-0.0071290806
159	0x24	0.12832345
160	0x34	0.1853561
161	0x15	0.07485534
162	0x37	0.19604972
163	0xd9	-0.13901708
164	0x5b	0.32437316
165	0xff	-0.0035645403
166	0xfa	-0.021387242
167	0xde	-0.12119437
168	0xd9	-0.13901708
169	0x1b	0.09624259
170	0xf1	-0.053468104
171	0x04	0.014258161
172	0x39	0.2031788
173	0xe7	-0.0891135
174	0x31	0.17466247
175	0xee	-0.064161725
176	0xf1	-0.053468104
177	0x3a	0.20674333
178	0x2c	0.15683977
179	0xfb	-0.017822701
180	0xe9	-0.08198443
181	0x11	0.060597185
182	0xd2	-0.16396886
183	0xc6	-0.20674333
184	0x09	0.032080863
185	0xe4	-0.09980713
186	0xdd	-0.124758914
187	0x51	0.28872776
188	0xf6	-0.035645403
189	0x22	0.12119437
190	0xd3	-0.16040431
191	0x0f	0.053468104
192	0xe0	-0.11406529
193	0x0e	0.049903564
194	0x25	0.13188799
195	0xfb	-0.017822701
196	0x34	0.1853561
197	0xb7	-0.26021144
198	0xbc	-0.24238874
199	0xbb	-0.24595328
200	0x1d	0.103371665
201	0xe3	-0.103371665
202	0x49	0.26021144
203	0x2f	0.1675334
204	0x02	0.0071290806
205	0xb5	-0.2673405
206	0xfc	-0.014258161
207	0xdd	-0.124758914
208	0x13	0.06772627
209	0x40	0.22813058
210	0x12	0.064161725
211	0x12	0.064161725
212	0xf2	-0.049903564
213	0x9a	-0.36358312
214	0x40	0.22813058
215	0x06	0.021387242
216	0x2d	0.16040431
217	0xd6	-0.14971069
218	0x51	0.28872776
219	0xd6	-0.14971069
220	0xdd	-0.124758914
221	0x20	0.11406529
222	0xe8	-0.08554897
223	0x1e	0.10693621
224	0xc4	-0.21387242
225	0x27	0.13901708
226	0xf4	-0.042774484
227	0x20	0.11406529
228	0x13	0.06772627
229	0x4a	0.26377597
230	0x45	0.24595328
231	0x1d	0.103371665
232	0x1b	0.09624259
233	0x03	0.010693621
234	0x22	0.12119437
235	0x10	0.057032645
236	0xcf	-0.17466247
237	0x0a	0.035645403
238	0xbb	-0.24595328
239	0xbe	-0.23525965
240	0x08	0.028516322
241	0xb3	-0.2744696
242	0xdf	-0.117629826
243	0xe3	-0.103371665
244	0xcb	-0.18892063
245	0xac	-0.29942137
246	0x2b	0.15327524
247	0xb5	-0.2673405
248	0x27	0.13901708
249	0x1c	0.09980713
250	0x25	0.13188799
251	0xfc	-0.014258161
252	0x2d	0.16040431
253	0x1b	0.09624259
254	0xc5	-0.21030788
255	0x1d	0.103371665

sequential/lstm/Read_2/ReadVariableOp1 f4 [512]
0	0x3c0838c7	0.008314318
1	0x3c8028b2	0.015644405
2	0x3cec027d	0.02880978
3	0x3ce6833f	0.028138755
4	0x3d0c7516	0.03429135
5	0x3c029514	0.007970113
6	0xbc0b2294	-0.008492131
7	0xbce380af	-0.027771322
8	0x3bc92a5c	0.006139083
9	0x3d0c94ee	0.034321718
10	0xbc8ec4d5	-0.017427841
11	0xbcca2287	-0.024674667
12	0xbbeaed06	-0.0071693687
13	0x3d5b8013	0.053588938
14	0x3d5b62b8	0.053560942
15	0x3d1fed3d	0.039044607
16	0x3da30cbe	0.07961415
17	0xbc7435d1	-0.014905409
18	0x3d1adc02	0.037807472
19	0x3aade253	0.0013266302
20	0x3d16b815	0.036796648
21	0xbd06aa8e	-0.032877497
22	0x3b5d485d	0.0033765056
23	0xbc0448e7	-0.008074022
24	0xbc67dde3	-0.014152023
25	0xbca59834	-0.020214178
26	0xbc2021b2	-0.009773659
27	0x3d050760	0.032477736
28	0xbb3ae24b	-0.0028516229
29	0xbd1151d6	-0.035478435
30	0x3bf0bba2	0.0073465863
31	0x3bf7cb3e	0.00756207
32	0x3c2fd05e	0.010730831
33	0xbc24985a	-0.010046089
34	0x3c83d344	0.01609195
35	0x3c46d010	0.012134567
36	0x3ca2f7eb	0.019893607
37	0xbba2347b	-0.004950104
38	0xbd2f2c42	-0.042766817
39	0x3cbba442	0.022905473
40	0x3d501514	0.05080135
41	0xbc6bcb68	-0.014391758
42	0x3c2d3156	0.010570845
43	0xbbde74db	-0.0067888326
44	0x3ca2884f	0.019840388
45	0x3c32f5a7	0.010922826
46	0xbc92dac0	-0.017926574
47	0x3d3befb7	0.045882907
48	0x3b2198bf	0.0024657694
49	0xbaf11a03	-0.0018394593
50	0xbc0992e8	-0.008396842
51	0x3c8440f0	0.016144246
52	0x3d2140f8	0.0393686
53	0xbc003a6d	-0.00782643
54	0xbb5442c6	-0.0032388433
55	0x3bd3c53d	0.0064627216
56	0xbd27b696	-0.040945612
57	0x3c1779e3	0.009245369
58	0x3de706b0	0.112805724
59	0x3d59d04d	0.053177167
60	0x3c4b2f69	0.01240144
61	0x3cb9a843	0.022663241
62	0x3ca57f02	0.020202164
63	0x3dc97d03	0.09838297
64	0x3c5e076b	0.013551573
65	0x3ab5e6f7	0.0013878037
66	0xbc0c3623	-0.008557829
67	0x3ab0c065	0.0013485072
68	0xbcda4716	-0.026645225
69	0x3c76e6e2	0.015069695
70	0x3c45c079	0.012069815
71	0x3b96fd09	0.004607801
72	0x3d8691d4	0.06570783
73	0x3c66718a	0.014065156
74	0xbbb22538	-0.0054365657
75	0x3d01a901	0.031655315
76	0x3be9ddc5	0.0071370327
77	0x3d119252	0.035539933
78	0xbb5974e4	-0.0033181245
79	0x3c1af09f	0.009456783
80	0x3cd070b4	0.025444366
81	0x3c912f0d	0.01772263
82	0xbc38d43b	-0.011281068
83	0xbb8f59db	-0.0043747253
84	0x3c896a5b	0.016774347
85	0xbaa701db	-0.0012741642
86	0x3cdad6fb	0.026713839
87	0x3d0e72f9	0.034777615
88	0xbb82ab1a	-0.003987682
89	0x3d02a111	0.031891886
90	0x3c84070e	0.016116645
91	0xb929be09	-0.0001618789
92	0xbaf8aa8c	-0.0018971725
93	0x39be9c10	0.000363559
94	0xbc0e22c6	-0.008675283
95	0x3cbf08f6	0.023319703
96	0xbd13965f	-0.036032077
97	0xbd095e3a	-0.033537127
98	0xbc4cc2aa	-0.012497583
99	0xbd15f7e5	-0.036613364
100	0x3c6c7d24	0.014434133
101	0xbd3f8467	-0.046757128
102	0x3d1920a1	0.037384633
103	0xbd423777	-0.047416177
104	0xbc6209bb	-0.013796265
105	0x3d4e9465	0.05043449
106	0xbc1f7ed6	-0.00973483
107	0x39844064	0.00025224977
108	0x3900366e	0.00012227308
109	0x3d003a9c	0.031305894
110	0xbb93bb84	-0.0045084376
111	0x3c23b204	0.009991173
112	0x3c47c9e2	0.012194129
113	0xbd81a0c9	-0.063294955
114	0x3c33c249	0.010971614
115	0x3c2d5d2d	0.010581297
116	0x3cbc3b82	0.022977594
117	0xbb3d1ba1	-0.002885558
118	0x3b4069cb	0.0029359933
119	0x3beb7059	0.0071850237
120	0x3d833334	0.064062506
121	0xbc7534d9	-0.014966213
122	0x3d2938e8	0.041314036
123	0xbd058aae	-0.03260296
124	0x3d8a3b35	0.06749574
125	0xbcba3f5e	-0.022735294
126	0x3cb6b524	0.022303171
127	0x3c817cbd	0.01580655
128	0x3f82100b	1.0161146
129	0x3f82abbc	1.0208659
130	0x3f8130b1	1.0092984
131	0x3f81b629	1.0133716
132	0x3f820c21	1.0159951
133	0x3f7efe79	0.99607044
134	0x3f7fb073	0.99878615
135	0x3f801d07	1.0008858
136	0x3f8189a1	1.0120126
137	0x3f832ae4	1.0247464
138	0x3f7c21ef	0.9848928
139	0x3f7b612d	0.98195153
140	0x3f806df2	1.0033553
141	0x3f848522	1.0353129
142	0x3f843a3f	1.0330275
143	0x3f83aaa3	1.0286449
144	0x3f839f62	1.0283015
145	0x3f7cd67c	0.9876478
146	0x3f82bc2e	1.0213678
147	0x3f7cf94c	0.98817897
148	0x3f810279	1.007888
149	0x3f742230	0.95364666
150	0x3f7e28c9	0.99280983
151	0x3f7dc2f0	0.99125576
152	0x3f8043f0	1.0020733
153	0x3f7c302e	0.98511016
154	0x3f806ee9	1.0033847
155	0x3f8456fa	1.0339043
156	0x3f7da90b	0.99086064
157	0x3f7e7205	0.9939273
158	0x3f814401	1.0098878
159	0x3f825708	1.018281
160	0x3f7d23ad	0.9888256
161	0x3f801192	1.0005362
162	0x3f81023a	1.0078804
163	0x3f801b68	1.0008364
164	0x3f8120bd	1.0088116
165	0x3f7d971e	0.9905871
166	0x3f7b17e8	0.98083353
167	0x3f8181ad	1.0117699
168	0x3f826fe9	1.0190402
169	0x3f802039	1.0009834
170	0x3f8241f9	1.0176383
171	0x3f7d5022	0.989504
172	0x3f81db44	1.014504
173	0x3f80a2b6	1.0049655
174	0x3f7c545c	0.9856622
175	0x3f840a35	1.0315615
176	0x3f804557	1.0021161
177	0x3f80518f	1.002489
178	0x3f7c9a8f	0.9867334
179	0x3f803849	1.0017177
180	0x3f84e365	1.0381895
181	0x3f7e7ef8	0.9941249
182	0x3f7d9e04	0.9906924
183	0x3f82d981	1.0222627
184	0x3f76988d	0.96326524
185	0x3f81d8db	1.0144304
186	0x3f895032	1.0727599
187	0x3f82ea7a	1.0227807
188	0x3f8180f4	1.0117478
189	0x3f829a43	1.0203327
190	0x3f8201fb	1.0156854
191	0x3f852694	1.0402398
192	0x3f7f22bd	0.9966238
193	0x3f7d8687	0.990334
194	0x3f7f2d36	0.9967836
195	0x3f7e8db1	0.99434954
196	0x3f7fe60c	0.999604
197	0x3f838662	1.0275385
198	0x3f837bc9	1.0272151
199	0x3f801172	1.0005324
200	0x3f842d4c	1.0326324
201	0x3f80cda3	1.0062755
202	0x3f80205a	1.0009873
203	0x3f81def5	1.0146166
204	0x3f819469	1.0123416
205	0x3f8071c5	1.003472
206	0x3f80334b	1.0015653
207	0x3f81cec5	1.0141226
208	0x3f8088f7	1.0041798
209	0x3f81ba55	1.0134989
210	0x3f7c15d5	0.98470813
211	0x3f7d7a3d	0.99014646
212	0x3f834f9f	1.0258673
213	0x3f8034df	1.0016135
214	0x3f8282e1	1.0196191
215	0x3f831d4b	1.0243315
216	0x3f7f7db7	0.998012
217	0x3f86caf2	1.0530684
218	0x3f7fe5e2	0.9996015
219	0x3f7f5b8a	0.9974905
220	0x3f809bfa	1.00476
221	0x3f81ca5a	1.0139878
222	0x3f7e16d6	0.99253595
223	0x3f82bc70	1.0213757
224	0x3f7cf4f4	0.9881127
225	0x3f78a2a3	0.97123164
226	0x3f7cf761	0.9881497
227	0x3f7e51de	0.9934367
228	0x3f823ca6	1.0174758
229	0x3f789271	0.9709845
230	0x3f842aae	1.0325525
231	0x3f79c6be	0.9756888
232	0x3f8157b4	1.010489
233	0x3f845368	1.0337954
234	0x3f77c3bf	0.9678306
235	0x3f7d95ba	0.9905659
236	0x3f81694b	1.0110258
237	0x3f8266bc	1.0187602
238	0x3f7ef6d6	0.9959539
239	0x3f82d237	1.0220402
240	0x3f839ff5	1.028319
241	0x3f793c45	0.9735759
242	0x3f821a87	1.0164346
243	0x3f7f5b04	0.99748254
244	0x3f7ec61b	0.99521035
245	0x3f80a03d	1.0048901
246	0x3f812c71	1.0091687
247	0x3f81f766	1.0153625
248	0x3f843db3	1.0331329
249	0x3f7d6299	0.98978573
250	0x3f890b97	1.0706662
251	0x3f7885f2	0.97079384
252	0x3f875c53	1.057505
253	0x3f7adbf5	0.9799188
254	0x3f843b41	1.0330583
255	0x3f8059c9	1.00274

while/MatMul_11 i1 [512, 128] scale=0.002149007 zero_point=0
0	0xfb	-0.0107450355
1	0xf9	-0.015043049
2	0xef	-0.03653312
3	0x1f	0.06661922
4	0xf7	-0.019341063
5	0x12	0.038682126
6	0x16	0.047278155
7	0xed	-0.040831134
8	0xdf	-0.070917234
9	0xee	-0.038682126
10	0xe2	-0.06447021
11	0x23	0.07521525
12	0xf0	-0.034384113
13	0x0a	0.021490071
14	0x07	0.015043049
15	0x28	0.085960284
16	0x24	0.07736425
17	0x17	0.049427163
18	0x36	0.116046384
19	0x0e	0.030086098
20	0xf8	-0.017192056
21	0x02	0.004298014
22	0x2e	0.098854326
23	0xef	-0.03653312
24	0x16	0.047278155
25	0x22	0.07306624
26	0xea	-0.047278155
27	0xde	-0.07306624
28	0x23	0.07521525
29	0xe2	-0.06447021
30	0x00	0.0
31	0x13	0.040831134
32	0xf7	-0.019341063
33	0xf6	-0.021490071
34	0xef	-0.03653312
35	0xf1	-0.032235105
36	0x0e	0.030086098
37	0xf8	-0.017192056
38	0xf7	-0.019341063
39	0xf3	-0.027937092
40	0x1b	0.058023192
41	0x02	0.004298014
42	0x1c	0.060172196
43	0x17	0.049427163
44	0x16	0.047278155
45	0x0b	0.023639077
46	0x2a	0.09025829
47	0xe8	-0.051576167
48	0xed	-0.040831134
49	0x1e	0.06447021
50	0x2a	0.09025829
51	0x14	0.042980142
52	0x08	0.017192056
53	0x30	0.103152335
54	0xeb	-0.045129146
55	0xe2	-0.06447021
56	0x0d	0.027937092
57	0xf8	-0.017192056
58	0x06	0.012894042
59	0x19	0.053725176
60	0xc4	-0.12894042
61	0xf7	-0.019341063
62	0x14	0.042980142
63	0x32	0.10745035
64	0x0e	0.030086098
65	0xca	-0.116046384
66	0xea	-0.047278155
67	0xfb	-0.0107450355
68	0xeb	-0.045129146
69	0xf8	-0.017192056
70	0x06	0.012894042
71	0xe9	-0.049427163
72	0x0c	0.025788084
73	0x0b	0.023639077
74	0x06	0.012894042
75	0xec	-0.042980142
76	0xe6	-0.055874184
77	0xf3	-0.027937092
78	0x28	0.085960284
79	0x1b	0.058023192
80	0xe0	-0.068768226
81	0xf7	-0.019341063
82	0x1c	0.060172196
83	0x0f	0.032235105
84	0x17	0.049427163
85	0xdd	-0.07521525
86	0xdf	-0.070917234
87	0xde	-0.07306624
88	0x18	0.051576167
89	0xf3	-0.027937092
90	0xfc	-0.008596028
91	0x0e	0.030086098
92	0x20	0.068768226
93	0x09	0.019341063
94	0xff	-0.002149007
95	0x0b	0.023639077
96	0x15	0.045129146
97	0xd8	-0.085960284
98	0x14	0.042980142
99	0x21	0.070917234
100	0x0c	0.025788084
101	0xee	-0.038682126
102	0x18	0.051576167
103	0xff	-0.002149007
104	0xd0	-0.103152335
105	0x18	0.051576167
106	0xfa	-0.012894042
107	0x14	0.042980142
108	0xe2	-0.06447021
109	0x40	0.13753645
110	0xe1	-0.06661922
111	0x04	0.008596028
112	0xe3	-0.062321205
113	0xf9	-0.015043049
114	0xf3	-0.027937092
115	0xdb	-0.07951326
116	0x05	0.0107450355
117	0xf8	-0.017192056
118	0x08	0.017192056
119	0xfa	-0.012894042
120	0x0b	0.023639077
121	0x13	0.040831134
122	0x01	0.002149007
123	0xdd	-0.07521525
124	0x04	0.008596028
125	0xf7	-0.019341063
126	0x08	0.017192056
127	0xf9	-0.015043049
128	0xf4	-0.025788084
129	0x0e	0.030086098
130	0x03	0.006447021
131	0x1a	0.055874184
132	0xed	-0.040831134
133	0xf4	-0.025788084
134	0xd3	-0.09670532
135	0xfc	-0.008596028
136	0xf4	-0.025788084
137	0xb8	-0.1547285
138	0xcb	-0.113897376
139	0xf8	-0.017192056
140	0xf9	-0.015043049
141	0x1c	0.060172196
142	0xf5	-0.023639077
143	0x29	0.08810929
144	0xb7	-0.15687752
145	0xfa	-0.012894042
146	0xc2	-0.13323843
147	0x01	0.002149007
148	0xe2	-0.06447021
149	0x08	0.017192056
150	0x04	0.008596028
151	0x1e	0.06447021
152	0x2b	0.0924073
153	0x00	0.0
154	0xf0	-0.034384113
155	0x04	0.008596028
156	0xf4	-0.025788084
157	0x0a	0.021490071
158	0xf7	-0.019341063
159	0x10	0.034384113
160	0x11	0.03653312
161	0xf6	-0.021490071
162	0x28	0.085960284
163	0xf9	-0.015043049
164	0x32	0.10745035
165	0x0f	0.032235105
166	0x01	0.002149007
167	0x0c	0.025788084
168	0xfc	-0.008596028
169	0x38	0.12034439
170	0x00	0.0
171	0x0f	0.032235105
172	0x0c	0.025788084
173	0x02	0.004298014
174	0x24	0.07736425
175	0xf9	-0.015043049
176	0x1a	0.055874184
177	0x07	0.015043049
178	0x0f	0.032235105
179	0xf2	-0.030086098
180	0xed	-0.040831134
181	0x00	0.0
182	0xee	-0.038682126
183	0x28	0.085960284
184	0x0f	0.032235105
185	0xe5	-0.058023192
186	0xfa	-0.012894042
187	0xdc	-0.07736425
188	0x0c	0.025788084
189	0xe0	-0.068768226
190	0xf3	-0.027937092
191	0x16	0.047278155
192	0xce	-0.10745035
193	0xeb	-0.045129146
194	0x06	0.012894042
195	0xf7	-0.019341063
196	0x01	0.002149007
197	0x2e	0.098854326
198	0xf7	-0.019341063
199	0xf6	-0.021490071
200	0xda	-0.08166227
201	0xfb	-0.0107450355
202	0xe1	-0.06661922
203	0xf7	-0.019341063
204	0xef	-0.03653312
205	0x21	0.070917234
206	0xdd	-0.07521525
207	0xed	-0.040831134
208	0x09	0.019341063
209	0xcf	-0.10530134
210	0xdf	-0.070917234
211	0x11	0.03653312
212	0x0c	0.025788084
213	0x08	0.017192056
214	0xe3	-0.062321205
215	0x0a	0.021490071
216	0x1b	0.058023192
217	0xea	-0.047278155
218	0x27	0.083811276
219	0xf4	-0.025788084
220	0xd7	-0.08810929
221	0x08	0.017192056
222	0x03	0.006447021
223	0xee	-0.038682126
224	0xc7	-0.1224934
225	0x0a	0.021490071
226	0x04	0.008596028
227	0x09	0.019341063
228	0x0b	0.023639077
229	0x1d	0.062321205
230	0xf5	-0.023639077
231	0xcc	-0.11174837
232	0x01	0.002149007
233	0x33	0.10959936
234	0xe8	-0.051576167
235	0x06	0.012894042
236	0xb3	-0.16547354
237	0xfa	-0.012894042
238	0xf5	-0.023639077
239	0xdb	-0.07951326
240	0xfc	-0.008596028
241	0xf2	-0.030086098
242	0xd6	-0.09025829
243	0x42	0.14183447
244	0xfc	-0.008596028
245	0xfb	-0.0107450355
246	0x0b	0.023639077
247	0xff	-0.002149007
248	0x1b	0.058023192
249	0xfa	-0.012894042
250	0x26	0.08166227
251	0x1b	0.058023192
252	0xe4	-0.060172196
253	0xf2	-0.030086098
254	0xc2	-0.13323843
255	0xfd	-0.006447021

while/MatMul i1 [512, 100] scale=0.0038494337 zero_point=0
0	0xe5	-0.10393471
1	0x03	0.011548301
2	0x04	0.015397735
3	0x14	0.076988675
4	0x0a	0.038494337
5	0x05	0.019247169
6	0x0a	0.038494337
7	0x03	0.011548301
8	0x03	0.011548301
9	0x03	0.011548301
10	0xf6	-0.038494337
11	0xf8	-0.03079547
12	0x13	0.07313924
13	0xf9	-0.026946036
14	0x0b	0.042343773
15	0x0d	0.050042637
16	0xf2	-0.053892072
17	0xe5	-0.10393471
18	0x1e	0.115483016
19	0x10	0.06159094
20	0x11	0.06544037
21	0x04	0.015397735
22	0x15	0.08083811
23	0x07	0.026946036
24	0xf1	-0.057741508
25	0xf2	-0.053892072
26	0xec	-0.076988675
27	0x04	0.015397735
28	0xed	-0.07313924
29	0x05	0.019247169
30	0xf6	-0.038494337
31	0x08	0.03079547
32	0xe4	-0.107784145
33	0xfb	-0.019247169
34	0xef	-0.06544037
35	0x0d	0.050042637
36	0x10	0.06159094
37	0x09	0.0346449
38	0x24	0.1385796
39	0xe6	-0.10008527
40	0xe4	-0.107784145
41	0xd6	-0.16167621
42	0x0b	0.042343773
43	0xf7	-0.0346449
44	0x1a	0.10008527
45	0x11	0.06544037
46	0x08	0.03079547
47	0xf6	-0.038494337
48	0xe7	-0.09623584
49	0x08	0.03079547
50	0x16	0.084687546
51	0xe3	-0.11163358
52	0xfc	-0.015397735
53	0x04	0.015397735
54	0xf8	-0.03079547
55	0xfc	-0.015397735
56	0xed	-0.07313924
57	0x0e	0.053892072
58	0x01	0.0038494337
59	0x03	0.011548301
60	0xf7	-0.0346449
61	0xe4	-0.107784145
62	0xe8	-0.09238641
63	0xf1	-0.057741508
64	0x25	0.14242905
65	0x22	0.13088074
66	0xf7	-0.0346449
67	0x0c	0.046193205
68	0x00	0.0
69	0xe3	-0.11163358
70	0x0d	0.050042637
71	0x0c	0.046193205
72	0x08	0.03079547
73	0x0a	0.038494337
74	0x1d	0.11163358
75	0x17	0.08853698
76	0xf7	-0.0346449
77	0x17	0.08853698
78	0xe6	-0.10008527
79	0x09	0.0346449
80	0x01	0.0038494337
81	0x0d	0.050042637
82	0x09	0.0346449
83	0x04	0.015397735
84	0x00	0.0
85	0x0b	0.042343773
86	0x0c	0.046193205
87	0xe9	-0.08853698
88	0xfa	-0.023096602
89	0x03	0.011548301
90	0x08	0.03079547
91	0x17	0.08853698
92	0x17	0.08853698
93	0xff	-0.0038494337
94	0x13	0.07313924
95	0xe4	-0.107784145
96	0xfd	-0.011548301
97	0xeb	-0.08083811
98	0xe0	-0.12318188
99	0x16	0.084687546
100	0xde	-0.13088074
101	0x44	0.2617615
102	0x0d	0.050042637
103	0x4e	0.30025584
104	0x1b	0.10393471
105	0xfa	-0.023096602
106	0xef	-0.06544037
107	0x3a	0.22326715
108	0x03	0.011548301
109	0xed	-0.07313924
110	0x21	0.12703131
111	0x15	0.08083811
112	0xed	-0.07313924
113	0xf4	-0.046193205
114	0x1a	0.10008527
115	0xd7	-0.15782678
116	0xf8	-0.03079547
117	0xe0	-0.12318188
118	0xe3	-0.11163358
119	0xd5	-0.16552565
120	0x22	0.13088074
121	0x2b	0.16552565
122	0xef	-0.06544037
123	0xcc	-0.20017055
124	0xb6	-0.2848581
125	0xd2	-0.17707396
126	0x01	0.0038494337
127	0x2e	0.17707396
128	0x09	0.0346449
129	0x13	0.07313924
130	0x17	0.08853698
131	0x1b	0.10393471
132	0xcb	-0.20402
133	0x1b	0.10393471
134	0x01	0.0038494337
135	0x33	0.19632111
136	0x03	0.011548301
137	0xfa	-0.023096602
138	0x3e	0.2386649
139	0xf9	-0.026946036
140	0xd8	-0.15397735
141	0x36	0.20786943
142	0x0b	0.042343773
143	0x35	0.20402
144	0x40	0.24636376
145	0x2b	0.16552565
146	0x08	0.03079547
147	0x23	0.13473018
148	0xcc	-0.20017055
149	0xfc	-0.015397735
150	0x34	0.20017055
151	0xd2	-0.17707396
152	0xb6	-0.2848581
153	0x06	0.023096602
154	0x1e	0.115483016
155	0xda	-0.14627849
156	0xe6	-0.10008527
157	0xc2	-0.2386649
158	0x4c	0.29255697
159	0xee	-0.0692898
160	0x17	0.08853698
161	0xd9	-0.15012792
162	0xc1	-0.24251433
163	0x11	0.06544037
164	0x0d	0.050042637
165	0x4a	0.2848581
166	0x19	0.09623584
167	0xf2	-0.053892072
168	0x12	0.0692898
169	0xb4	-0.29255697
170	0xdc	-0.1385796
171	0xf7	-0.0346449
172	0xfe	-0.0076988675
173	0xee	-0.0692898
174	0xed	-0.07313924
175	0xf9	-0.026946036
176	0xfc	-0.015397735
177	0x10	0.06159094
178	0xd1	-0.18092339
179	0xf1	-0.057741508
180	0xd7	-0.15782678
181	0xe6	-0.10008527
182	0xdd	-0.13473018
183	0x28	0.15397735
184	0x4c	0.29255697
185	0xd8	-0.15397735
186	0xd2	-0.17707396
187	0xe9	-0.08853698
188	0xb0	-0.3079547
189	0xc8	-0.21556829
190	0xff	-0.0038494337
191	0xda	-0.14627849
192	0x13	0.07313924
193	0xfa	-0.023096602
194	0x26	0.14627849
195	0xd3	-0.17322452
196	0x36	0.20786943
197	0xcd	-0.19632111
198	0xc5	-0.22711658
199	0xc2	-0.2386649
200	0xfc	-0.015397735
201	0x12	0.0692898
202	0x13	0.07313924
203	0xff	-0.0038494337
204	0xf9	-0.026946036
205	0x12	0.0692898
206	0x0e	0.053892072
207	0x05	0.019247169
208	0xec	-0.076988675
209	0x20	0.12318188
210	0x09	0.0346449
211	0x08	0.03079547
212	0xf7	-0.0346449
213	0x25	0.14242905
214	0x27	0.15012792
215	0xf4	-0.046193205
216	0xfd	-0.011548301
217	0x02	0.0076988675
218	0x11	0.06544037
219	0xfc	-0.015397735
220	0x10	0.06159094
221	0xf2	-0.053892072
222	0xe5	-0.10393471
223	0xf9	-0.026946036
224	0x0a	0.038494337
225	0xf3	-0.050042637
226	0x08	0.03079547
227	0x0f	0.057741508
228	0xf3	-0.050042637
229	0x3c	0.23096603
230	0x12	0.0692898
231	0xe5	-0.10393471
232	0xf4	-0.046193205
233	0xff	-0.0038494337
234	0xf1	-0.057741508
235	0xfa	-0.023096602
236	0x15	0.08083811
237	0x23	0.13473018
238	0x05	0.019247169
239	0x13	0.07313924
240	0xef	-0.06544037
241	0x28	0.15397735
242	0xed	-0.07313924
243	0x21	0.12703131
244	0x24	0.1385796
245	0x0d	0.050042637
246	0xea	-0.084687546
247	0x34	0.20017055
248	0xc9	-0.21171886
249	0x04	0.015397735
250	0x13	0.07313924
251	0xea	-0.084687546
252	0x09	0.0346449
253	0x05	0.019247169
254	0x1b	0.10393471
255	0x14	0.076988675
